mrl/algorithms/models/edl/policy.pth.tar (torch, 165815 bytes, 8 tensors)

1.weight f4 [128, 43]
0	0x3d260955	0.040536243
1	0xbe4dd125	-0.20099314
2	0xbe11c221	-0.1423421
3	0x3eab7689	0.33488873
4	0x3ffc13fc	1.9693599
5	0x3e7cb2a3	0.2467752
6	0x3e088138	0.13330543
7	0xbf0a4468	-0.5401063
8	0x3d536781	0.05161238
9	0xbed7aea1	-0.4212542
10	0xbdc6ad33	-0.09701004
11	0xbe9774c5	-0.29581276
12	0xbdd0a34e	-0.10187398
13	0xbcc3f09d	-0.023918444
14	0x3c7c0953	0.015383082
15	0x3e6428d9	0.22281207
16	0xbf85f602	-1.0465701
17	0x3df1245d	0.11774514
18	0x3eb6b147	0.35682127
19	0x3e92fab3	0.28706893
20	0x3d565ddd	0.05233561
21	0x3d05a088	0.032623798
22	0xbef806eb	-0.48442778
23	0xbf1b024c	-0.6055038
24	0xbd861cc7	-0.065484576
25	0x3f0e905b	0.5568902
26	0xbf0940b0	-0.5361433
27	0x3e666c1f	0.22502182
28	0x3e37f835	0.17965777
29	0x3f0cc3c9	0.54986244
30	0xbf0b29b0	-0.54360485
31	0xbea7b179	-0.32752588
32	0xbf11499a	-0.5675293
33	0x3da6f598	0.08152312
34	0xbe75c2be	-0.2400007
35	0x3d9ac0d7	0.075563125
36	0x3eab400e	0.33447307
37	0x3daea592	0.08527674
38	0x3eae3d69	0.34031227
39	0x3ec0abd7	0.37631103
40	0x3f139566	0.5764984
41	0xbeac0bee	-0.33602852
42	0xbee633e0	-0.44961452
43	0x3d7ce38a	0.061740436
44	0x3cd1d087	0.025612129
45	0x3f60a2b7	0.87748283
46	0xbe431164	-0.19049603
47	0x3f7d311b	0.98903054
48	0x3f0b5e08	0.54440355
49	0xbdc5ae88	-0.0965243
50	0x3e5b6b71	0.21427704
51	0x3e8aa9c8	0.27082658
52	0xbe898359	-0.26858023
53	0x3e1d90c1	0.1538725
54	0x3dbe13d7	0.09281128
55	0xbe409910	-0.18808389
56	0x3e7fa0d1	0.2496369
57	0x3f1fc325	0.6240714
58	0xbe488b81	-0.19584467
59	0xbde356f4	-0.11100569
60	0x3e9871be	0.29774278
61	0xbe89f4d2	-0.26944596
62	0xbead7884	-0.3388101
63	0x3ef6e615	0.48222414
64	0x3edf73f0	0.4364314
65	0x3f16abe9	0.58856064
66	0x3f03d173	0.5149147
67	0xbde355ad	-0.11100326
68	0x3e1cf689	0.1532842
69	0x3f1a6853	0.60315436
70	0x3f726e43	0.94699496
71	0xbf0e9e9b	-0.5571076
72	0xbfafbb9a	-1.3729126
73	0x3f82ca9d	1.0218083
74	0x3f0f1547	0.5589184
75	0x3eb1e473	0.34744605
76	0x3e8adab8	0.27119994
77	0x3edb10c7	0.42786238
78	0x3fbabe04	1.4589238
79	0xbde9d80f	-0.11418163
80	0x3f9aafbf	1.2084883
81	0xbfe02227	-1.7510422
82	0x3eebbb04	0.4604112
83	0xbf3e299f	-0.7428226
84	0x3fc5500d	1.5415055
85	0x3ddac6ed	0.10682473
86	0xbeb8a227	-0.36061212
87	0xbf013bac	-0.5048168
88	0xbe0adc4d	-0.135606
89	0xbe1f8e84	-0.15581709
90	0xbf2304de	-0.636793
91	0xbcf185f2	-0.029482815
92	0xbdac6b6c	-0.084189266
93	0x3eda7d54	0.42673743
94	0x3ec435b2	0.38322216
95	0xbe9ce85d	-0.3064603
96	0x3eaa319b	0.3324097
97	0x3edd0863	0.4317046
98	0xbeb49bcf	-0.35275123
99	0x3eb189a3	0.3467532
100	0x3dc8d94d	0.09807072
101	0xbf08f96d	-0.53505594
102	0x3d834d72	0.06411256
103	0x3f943c94	1.1580987
104	0x3e6c38dd	0.23068567
105	0x3d06260f	0.03275114
106	0x3de7682c	0.11299166
107	0xbd9f2609	-0.077709265
108	0xbf6a35b7	-0.9148821
109	0xbea23cab	-0.3168691
110	0x3f114859	0.5675102
111	0xbf10541e	-0.5637835
112	0x3f11f867	0.57019657
113	0x3d7427c5	0.05960824
114	0xbe65a9e8	-0.22428095
115	0xbdcdeec0	-0.100553036
116	0x3daae510	0.083444715
117	0x3e753528	0.23946059
118	0xbe9111b6	-0.28333825
119	0xbe0fb7a4	-0.14034897
120	0x3e11f969	0.14255299
121	0x3e28f45a	0.16499463
122	0xbe6901d6	-0.22754607
123	0xbe12245a	-0.1427168
124	0x3dc5f01c	0.09664938
125	0x3d9f9fcd	0.077941515
126	0x3e67c194	0.22632438
127	0x3e8997c6	0.26873606
128	0xbdf1d645	-0.11808447
129	0x3e2705d7	0.16310821
130	0xbe235089	-0.1594869
131	0x3d6a83c1	0.057254557
132	0xbddceabd	-0.1078696
133	0x3fc0762e	1.5036066
134	0xbf11c901	-0.5694733
135	0xbd822a1c	-0.06355688
136	0xbe936554	-0.28788245
137	0x3e7af912	0.24509075
138	0xbf1fa737	-0.62364525
139	0x3eb882f8	0.3603742
140	0x3f3a8d5a	0.72871935
141	0xbe9daf09	-0.30797604
142	0x3e3ddfe6	0.18542442
143	0xbf274e41	-0.6535378
144	0xbedac520	-0.4272852
145	0xbf4347f1	-0.7628165
146	0xbebe9763	-0.37224874
147	0xbd4a6a82	-0.04941798
148	0xbdab4009	-0.08361823
149	0xbd99fc0e	-0.07518779
150	0x3ee07f43	0.43847093
151	0x3f3822c1	0.7192803
152	0xbf038478	-0.51374006
153	0x3f19273b	0.59825486
154	0x3f5cc1f6	0.8623346
155	0xbe2346f3	-0.15945034
156	0xbd02f706	-0.03197386
157	0x3f2b4070	0.668952
158	0x3ec51399	0.38491514
159	0xbeed85af	-0.46391055
160	0xbecb276e	-0.3967852
161	0xbe4721f3	-0.19446544
162	0x3b18ebd7	0.002333393
163	0xbe919488	-0.28433633
164	0xbeb7007a	-0.3574255
165	0x3e5b7beb	0.2143399
166	0xbe8a90ee	-0.27063698
167	0x3f2cdc0f	0.6752328
168	0x3d8fa6be	0.070142254
169	0x3e407e30	0.18798137
170	0xbec87346	-0.39150447
171	0x3b99b391	0.0046905954
172	0x3d26323e	0.04057526
173	0xbddf0bbd	-0.10890911
174	0xbedf7665	-0.43645015
175	0xbea27eaa	-0.31737262
176	0x3dd69c94	0.10479084
177	0xbf12d4ac	-0.5735576
178	0xbd759483	-0.059956085
179	0x3ea3a241	0.31959727
180	0x3d35b177	0.044358697
181	0x3e66d218	0.22541082
182	0x3daa001b	0.08300801
183	0xbed9fb7f	-0.4257469
184	0x3db386f1	0.087659724
185	0xbdb2df84	-0.087340385
186	0x3e2e5309	0.17023863
187	0x3ecce727	0.40020105
188	0x3d5f9cd6	0.05459293
189	0x3e0c3e6c	0.13695687
190	0xbf0645ee	-0.52450454
191	0xbe9827f1	-0.29717973
192	0xbf6baa28	-0.9205651
193	0x3dd38b1b	0.10329267
194	0xbeb746a3	-0.3579608
195	0x3eed95fc	0.46403491
196	0x3e8c56fb	0.2741011
197	0x3f0376ac	0.51352954
198	0xbf58d9f8	-0.84707594
199	0x3e8a05f0	0.26957655
200	0xbe983ec0	-0.29735374
201	0xbf271ed1	-0.652814
202	0x3ef0eecf	0.47057196
203	0x3eca53c0	0.3951702
204	0x3e67d76f	0.22640775
205	0x3e129c07	0.14317332
206	0x3eea459a	0.45756227
207	0x3ee2f98b	0.4433101
208	0xbec964c8	-0.39334702
209	0x3efaaa13	0.4895788
210	0xbf195782	-0.5989915
211	0x3dd40b73	0.10353746
212	0xbf1baa6c	-0.6080692
213	0x3eba6d3e	0.3641147
214	0xbcb02af9	-0.021504866
215	0xbe88160a	-0.26579314
216	0xbe58db78	-0.2117747
217	0x3d262c2a	0.040569462
218	0xbe407de5	-0.18798025
219	0xbee81051	-0.45324948
220	0xbd1bf271	-0.038073007
221	0x3d3d39b3	0.046197604
222	0x3e8f32fd	0.27968588
223	0xbdab577e	-0.08366297
224	0xbf1edfd0	-0.6206026
225	0x3db51f80	0.08843899
226	0xbf0785f4	-0.5293877
227	0x38babcf8	8.904369e-05
228	0x3e89e0eb	0.2692941
229	0xbe64c322	-0.22340062
230	0x3f405d88	0.7514272
231	0xbee69274	-0.4503361
232	0xbf819433	-1.0123352
233	0xbec46613	-0.38359126
234	0x3f130f55	0.5744527
235	0xbf2f11ea	-0.6838671
236	0x3f8ff8d5	1.1247813
237	0x3ee2dcf7	0.44309208
238	0xbf52b812	-0.8231212
239	0xbeeea510	-0.46610308
240	0x3d094be2	0.033519633
241	0xbed3213a	-0.41236287
242	0xbe49ccf3	-0.19707088
243	0x3e03df81	0.12878229
244	0x3cc47703	0.02398253
245	0xbdc45442	-0.095863834
246	0x3d8f8bd9	0.07009096
247	0xbe141168	-0.14459765
248	0xbe84b4bb	-0.25919136
249	0x3dfa27d5	0.122146286
250	0xbea5e846	-0.32403773
251	0xbe298d4a	-0.16557804
252	0xbe87f149	-0.26551273
253	0x3f129d5e	0.57271373
254	0xbe3ea5ae	-0.1861789
255	0x3e293301	0.16523363

1.bias f4 [128]
0	0xbdf6aeef	-0.12045085
1	0x3ea52f79	0.3226278
2	0xbecb1ccd	-0.3967041
3	0xbc80d197	-0.01572494
4	0xbcfc5283	-0.030801063
5	0x3d0b7815	0.034050066
6	0xbdad1b41	-0.08452464
7	0xbe0b99ae	-0.13632843
8	0xbde92b80	-0.1138525
9	0xbe03c288	-0.12867177
10	0x3e8dd923	0.27704725
11	0xbc046392	-0.00808038
12	0xbe1ebdf5	-0.1550215
13	0x3e13af1b	0.14422266
14	0x3e48bfd9	0.19604434
15	0xbeb77a20	-0.3583536
16	0xbe332308	-0.17493832
17	0xbe3328e1	-0.17496063
18	0xbea617d1	-0.32440045
19	0xbe46bb03	-0.19407277
20	0x3d05ac51	0.032635037
21	0x3e96abe3	0.29428014
22	0xbd0b1e31	-0.03396434
23	0xbe0bcf30	-0.13653255
24	0xbdb9df4b	-0.09075793
25	0x3e03fd1e	0.12889525
26	0x3e1aa030	0.15100169
27	0x3ea12aac	0.3147787
28	0x3dc16942	0.094439045
29	0x3e4e3825	0.20138605
30	0xbda27a9a	-0.07933541
31	0xbd8bbbce	-0.0682293
32	0x3e8057d9	0.25067022
33	0x3c231756	0.009954294
34	0x3d689b72	0.05678887
35	0xbdefd8c1	-0.117112644
36	0xbcd9b8d4	-0.02657739
37	0xbe0cc3aa	-0.13746515
38	0xbd94561d	-0.07242987
39	0xbde9774c	-0.11399707
40	0xbe579222	-0.21051839
41	0xbd854228	-0.06506759
42	0xbe952ae9	-0.291343
43	0x3d6e52bd	0.058184374
44	0xbd9ac04e	-0.075562105
45	0xbea38ead	-0.3194479
46	0xbdd840e4	-0.10559252
47	0xbd8c9a21	-0.06865335
48	0x3c92444d	0.017854834
49	0xbee3068c	-0.44340932
50	0xbd406992	-0.04697568
51	0x3e08fef0	0.13378501
52	0xbdc908b2	-0.098161116
53	0xbe5c8e33	-0.2153862
54	0xbddbc577	-0.10731023
55	0x3d56c563	0.052434336
56	0xbe2d1ab9	-0.16904725
57	0xbd2e94b7	-0.042622294
58	0xbe8ee416	-0.2790839
59	0x3d8ee3a3	0.06977012
60	0x3e83fac0	0.25777245
61	0xbc5cabbc	-0.013468679
62	0x3e8d65a8	0.2761662
63	0x3e429816	0.19003329
64	0xbd95f50c	-0.073221296
65	0x3e0bdf93	0.13659506
66	0xbe0365ad	-0.12831755
67	0xbe8dd2bb	-0.27699837
68	0xbd070d38	-0.03297159
69	0x3e3bc290	0.18335938
70	0x3d2cc780	0.042182446
71	0xbe0dc101	-0.13843156
72	0xbe558403	-0.2085114
73	0xbdd53b5c	-0.104117125
74	0xbdfd749b	-0.12375756
75	0xbe44b1d7	-0.19208466
76	0xbe5e6a35	-0.21720202
77	0x3e8c1e55	0.27366892
78	0xbec6836a	-0.38772136
79	0xbd836b34	-0.06416932
80	0xbd842b80	-0.064536095
81	0x3ebc7576	0.36808366
82	0xbd34725a	-0.044054367
83	0xbe827509	-0.25479916
84	0xbe940f6a	-0.2891801
85	0xbe5e1246	-0.21686658
86	0xbe20ba08	-0.15695965
87	0xbddb2f3f	-0.10702371
88	0xbcbbf73b	-0.022945037
89	0xbd1f2b88	-0.038859874
90	0xbe83a8f4	-0.25714839
91	0x3b8d4ddb	0.0043122596
92	0xbe81fbb7	-0.25387356
93	0x3df6a53c	0.12043235
94	0xb92356a9	-0.00015577175
95	0xbe42f1fe	-0.19037625
96	0xbc92e01d	-0.017929131
97	0xbd78a933	-0.060708236
98	0xbe377acd	-0.17917939
99	0x3d627c11	0.0552941
100	0x39751cfe	0.00023375821
101	0xbdc9d7c2	-0.09855606
102	0xbe0d258e	-0.13783857
103	0x3d77fb21	0.06054223
104	0xbebbad82	-0.36655813
105	0x3d172abd	0.036905993
106	0xbd720760	-0.059089065
107	0xbe329d19	-0.1744274
108	0xbd915f31	-0.070982344
109	0xbe1ea9a7	-0.15494405
110	0x3e3184f2	0.17335871
111	0x3d1cf12e	0.038315944
112	0xbe9bc199	-0.3042114
113	0xbea2f4f7	-0.31827518
114	0xbd36f31f	-0.044665452
115	0xbe99b491	-0.30020574
116	0x3df07b31	0.11742247
117	0xbdca66c9	-0.09882886
118	0xbc15c6d3	-0.009141642
119	0xbe1e7d85	-0.1547757
120	0x3ea1e0b3	0.31616744
121	0x3e116b31	0.14201047
122	0xbe49929a	-0.1968483
123	0xbddb1e35	-0.10699121
124	0x3d1d10e0	0.03834617
125	0xbe4c3c3d	-0.19944854
126	0xbe0860ae	-0.1331813
127	0xbd22b4a0	-0.03972304

3.weight f4 [128, 128]
0	0x3d5f6803	0.054542553
1	0xbf424a5c	-0.75894713
2	0x3dc98d06	0.09841351
3	0xbe913034	-0.2835709
4	0x3e689c4a	0.2271587
5	0xbd479b74	-0.048732236
6	0x3f19d658	0.6009269
7	0x3ed0dc81	0.4079323
8	0x3ee144b6	0.43997735
9	0x3e612b64	0.21989208
10	0xbf2676a6	-0.65024793
11	0xbdc98bcb	-0.098411165
12	0xbe256ec9	-0.16155542
13	0xbccfd1ab	-0.025368532
14	0x3cf1b605	0.029505739
15	0x3e2b0573	0.16701297
16	0x3e890e9a	0.26768953
17	0x3be1eb3d	0.0068944977
18	0xbe3ed337	-0.1863526
19	0x3eaa4bbb	0.33260903
20	0xbf9b93c5	-1.2154471
21	0xbea7738a	-0.32705337
22	0x3e43ec5f	0.19133137
23	0x3ead3db8	0.3383615
24	0xbe8760bc	-0.2644099
25	0xbe4ba13b	-0.19885723
26	0xbe071dbe	-0.1319494
27	0x3d956701	0.07295037
28	0xbd75e4c1	-0.06003261
29	0x3e2b9a64	0.16758114
30	0xbeb24a03	-0.3482209
31	0xbd4247e0	-0.047431827
32	0xbeee99da	-0.46601754
33	0xbea550d1	-0.3228822
34	0xbe915cfb	-0.2839125
35	0xbe3c9f07	-0.18420039
36	0x3da8bd43	0.08239224
37	0x3ebfe79e	0.37481397
38	0xbd408877	-0.047005143
39	0xbe84edc0	-0.2596264
40	0xbdcc8e6c	-0.09988102
41	0x3ea22e5b	0.3167599
42	0x3e6d4d2c	0.2317397
43	0xbf4c17ba	-0.79723704
44	0xbf4e131e	-0.8049792
45	0x3d9b5a93	0.07585635
46	0x3d964681	0.07337666
47	0xbea2f039	-0.318239
48	0x3ee14c97	0.44003746
49	0xbe354f4d	-0.17706032
50	0x3d3b3bb7	0.045711245
51	0x3f0d7987	0.5526356
52	0x3dbd1ea2	0.09234358
53	0xbf0fe99e	-0.56215847
54	0x3d82d2e7	0.06387883
55	0x3f0f36fb	0.5594327
56	0x3dcf03f5	0.101081766
57	0xbf21ce45	-0.6320537
58	0xbe7f89be	-0.24954888
59	0xbea6d646	-0.32585353
60	0xbeb4f9b5	-0.3534676
61	0xbef99006	-0.48742694
62	0x3cef3a21	0.029202523
63	0x3b533c74	0.0032232078
64	0x3eb9ba03	0.36274728
65	0xbea10de3	-0.31455907
66	0xbe8921c2	-0.26783568
67	0x3b6c0152	0.003601153
68	0xbe96496e	-0.29352897
69	0xbf87606b	-1.05763
70	0xbe18cf11	-0.1492274
71	0x3bf10ce5	0.0073562735
72	0xbe359384	-0.17732054
73	0x3e976e78	0.29576468
74	0x3e71d730	0.23617244
75	0xbf63323f	-0.88748544
76	0xbee82aca	-0.45345145
77	0xbf748990	-0.95522404
78	0x3e37f2cf	0.17963718
79	0xbf4bc77b	-0.7960126
80	0x3d924fde	0.0714414
81	0xbe5d9bb8	-0.21641433
82	0x3f63c450	0.88971424
83	0xbebf64ed	-0.37381688
84	0x3eca1b75	0.39474073
85	0x3dcbed22	0.09957339
86	0x3d4fdcf9	0.050747845
87	0x3ef11826	0.47088736
88	0x3ee33c75	0.44382063
89	0xbea2774e	-0.31731647
90	0xbe27c49e	-0.16383597
91	0xbe8b84a6	-0.2724964
92	0x3e0ea433	0.13929825
93	0x3ebc1833	0.36737213
94	0xbe16bb9c	-0.14720005
95	0x3ef85894	0.4850508
96	0xbe29abbe	-0.1656942
97	0x3e78666a	0.24257818
98	0xbce33bc6	-0.027738463
99	0xbf1c0cae	-0.6095685
100	0x3e64f2ef	0.22358297
101	0xbe55986c	-0.20858926
102	0x3e2df078	0.16986263
103	0x3e6c5fb3	0.23083381
104	0xbe8196bb	-0.2531031
105	0xbe4b9f91	-0.19885089
106	0x3e9579fc	0.2919463
107	0x3e63a258	0.22229898
108	0x3e12ccdc	0.1433596
109	0x3f1854dc	0.59504485
110	0xbeab6867	-0.3347809
111	0xbe1e9427	-0.15486203
112	0xbe4071a5	-0.18793352
113	0x3e1f65c7	0.15566169
114	0xbf16a1a1	-0.58840376
115	0x3e1c32ec	0.152538
116	0xbe6e6d8e	-0.2328398
117	0x3edbb260	0.42909527
118	0xbf4bd49f	-0.7962131
119	0x3e8ab1d9	0.27088812
120	0x3ec7ce97	0.39024803
121	0xbf40dc8c	-0.7533653
122	0x3e8513b3	0.25991592
123	0xbf713e72	-0.9423591
124	0xbe296841	-0.16543676
125	0xbf5f4035	-0.8720735
126	0xbdfe3dbd	-0.124141194
127	0x3e40ad1c	0.18816036
128	0x3e6c04ea	0.2304875
129	0x3dac6982	0.084185615
130	0xbec7b74a	-0.39007026
131	0xbbfa9373	-0.007646972
132	0xbf4cbf92	-0.79979813
133	0x3f0fceb2	0.56174767
134	0xbef89bc9	-0.48556355
135	0x3d98642a	0.0744098
136	0x3dac0723	0.08399799
137	0x3e371707	0.17879878
138	0xbea694db	-0.32535443
139	0xbf5dc459	-0.8662773
140	0xbe4379a9	-0.19089378
141	0xbe5fc187	-0.21851169
142	0xbee018c9	-0.4376891
143	0xbdc68318	-0.09692973
144	0x3ecdd357	0.40200302
145	0x3e4d4b90	0.20048356
146	0x3d382629	0.044958267
147	0xbcda687e	-0.026661154
148	0xbcae5823	-0.021282261
149	0xbf023a8f	-0.50870603
150	0xbd2627e3	-0.040565383
151	0x3d5c01d8	0.053712696
152	0xbd8ba82e	-0.06819187
153	0xbf0b3249	-0.54373604
154	0x3e038e4a	0.12847248
155	0xbf299644	-0.6624491
156	0xbbbcb6b7	-0.005759086
157	0xbe851d36	-0.2599885
158	0x3cdfe735	0.027331928
159	0xbc23e0ba	-0.010002309
160	0xbfc6715a	-1.5503342
161	0xbd7c6274	-0.06161733
162	0x3d5ffa83	0.054682266
163	0xbefb21e7	-0.49049303
164	0x3e160442	0.14650062
165	0xbd4135ef	-0.047170576
166	0x3e8c906e	0.2745394
167	0xbe4f3f10	-0.202389
168	0xbf416354	-0.7554219
169	0xbe649214	-0.2232135
170	0xbeaa93ae	-0.33315796
171	0x3e97f137	0.2967622
172	0xbf00be4b	-0.50290364
173	0xbebf0d4d	-0.37314835
174	0x3ee45f71	0.44604066
175	0x3dbcd261	0.09219814
176	0x3dfc6a08	0.12324911
177	0x3f14b1d3	0.5808384
178	0x3d383f2c	0.04498212
179	0x3ebf00b1	0.37305215
180	0xbd8c61b0	-0.0685457
181	0x3e156d43	0.14592461
182	0xbd8f56ef	-0.06999003
183	0x3e713408	0.23555005
184	0xbec0e3a3	-0.37673673
185	0xb98e2ceb	-0.00027117817
186	0xbf608de8	-0.8771653
187	0xbf0965c4	-0.5367091
188	0x3dd7c435	0.105354704
189	0x3d6a786a	0.057243742
190	0x3e8e2298	0.27760768
191	0x3abb2a29	0.0014279532
192	0x3de4a2bc	0.111638516
193	0xbf1887c6	-0.59582174
194	0xbe76dafc	-0.24106973
195	0x3e41ae64	0.18914181
196	0xbf084b54	-0.5323994
197	0x3ca3794c	0.0199553
198	0xbe83330e	-0.2562489
199	0x3e9ac292	0.3022657
200	0x3ed2a14f	0.41138694
201	0x3e5ffc72	0.21873644
202	0xbdcc716a	-0.099825695
203	0x3e62112c	0.22076863
204	0xbefac1e2	-0.48976046
205	0x3ee55ca5	0.44797245
206	0xbacd270e	-0.0015651898
207	0xbe955676	-0.29167527
208	0x3ec04220	0.3755045
209	0xbe11716d	-0.14203425
210	0xbe368d4f	-0.17827342
211	0xbe91642a	-0.28396732
212	0xbf70c988	-0.9405751
213	0xbdd91d75	-0.106013216
214	0x3c8a20ef	0.016861407
215	0x3eeab8e4	0.45844185
216	0xbdd4a046	-0.10382132
217	0xbf9066e7	-1.1281403
218	0x3ec9a5af	0.3938422
219	0x3cc14129	0.023590641
220	0x3cd6c116	0.026215117
221	0xbf0b2cd8	-0.543653
222	0xbd058cc2	-0.03260494
223	0x3d7a67f3	0.06113429
224	0xbf0b45cc	-0.54403377
225	0x3c89761b	0.01677995
226	0x3ea4ae49	0.3216422
227	0xbf10dcb4	-0.56586766
228	0xbe480c43	-0.19535927
229	0x3dca9acf	0.09892809
230	0x3e578487	0.21046649
231	0xbe7d6ce4	-0.2474857
232	0xbe21502d	-0.15753241
233	0xbdf4cdbb	-0.119533025
234	0xbe78a92a	-0.24283281
235	0xbe9665c0	-0.29374504
236	0xbe280cd6	-0.16411147
237	0xbf608520	-0.8770313
238	0xbf05fef7	-0.5234217
239	0xbe607dd5	-0.21923001
240	0x3d5ebbc2	0.05437828
241	0xbf2d45af	-0.67684454
242	0x3d38822e	0.045046024
243	0xbe38694f	-0.18008922
244	0x3d7a6500	0.061131477
245	0xbe5e5f5b	-0.21716063
246	0x3e8ba8d9	0.27277258
247	0xbee3c7fc	-0.44488513
248	0xbf9dabc5	-1.2318045
249	0x3f0e8d97	0.556848
250	0x3e9902db	0.2988499
251	0x3e15af3f	0.14617632
252	0xbf987709	-1.1911327
253	0xbdebb797	-0.11509626
254	0x3e34d52a	0.1765944
255	0x3e23aa9e	0.15983054

3.bias f4 [128]
0	0x3eb57f1a	0.35448533
1	0x3e42900c	0.19000262
2	0x3e7610ac	0.24029797
3	0x3e20b154	0.15692645
4	0xbdc6c7a4	-0.09706047
5	0x3e71b199	0.23602904
6	0x3e98dc56	0.29855603
7	0x3eeed531	0.46647027
8	0x3dfe5325	0.12418202
9	0x3ea808f3	0.32819328
10	0x3e64d03a	0.22345057
11	0x3de795a3	0.11307838
12	0xbdd05371	-0.10172165
13	0x3e8d4b5e	0.27596563
14	0xbe1770e6	-0.14789161
15	0xbde2fa1c	-0.11082861
16	0x3ed8a554	0.42313635
17	0xbd2e6051	-0.042572323
18	0x3f020cef	0.50800985
19	0x3e7bffb0	0.24609256
20	0x3e1a9017	0.15094028
21	0x3f17006a	0.58985007
22	0x3dcf966a	0.10136111
23	0x3e6aefa7	0.22942983
24	0xbeaa607f	-0.33276746
25	0x3e2a8980	0.16654015
26	0x3e3002e3	0.17188601
27	0x3e1845e3	0.1487041
28	0xbd9e0ce4	-0.077173024
29	0xbeb2335c	-0.3480481
30	0x3e157d47	0.14598571
31	0xbd42d67b	-0.047567826
32	0x3de41dd4	0.11138502
33	0x3e5e8651	0.21730925
34	0x3def7089	0.11691386
35	0x3d295743	0.041342985
36	0x3e70112f	0.23444055
37	0xbd7a613a	-0.06112788
38	0x3ec92ca6	0.39291877
39	0x3e142007	0.14465342
40	0x3ebf20d2	0.37329727
41	0x3ed96fed	0.42468205
42	0x3eb89006	0.3604738
43	0xbe2058ec	-0.15658921
44	0x3e6eb11a	0.23309746
45	0x3e8a2655	0.2698237
46	0x3e9b2ad7	0.30306122
47	0xbda5b7a6	-0.08091669
48	0xbe3b7252	-0.18305328
49	0x3e647531	0.2231033
50	0xbe4d0bb4	-0.20023996
51	0xbda5d31f	-0.08096909
52	0xbecc5dad	-0.3991522
53	0x3e646b6d	0.22306605
54	0x3e889b9c	0.2668122
55	0xbe81e7bc	-0.25372112
56	0xbe5bd11d	-0.21466489
57	0xbe828161	-0.25489333
58	0xbddafc8f	-0.10692703
59	0x3e84ef0d	0.2596363
60	0xbe9813f8	-0.29702735
61	0x3e1ed97f	0.15512656
62	0x3e610260	0.21973562
63	0x3e926fcb	0.28600916
64	0x3e63f37e	0.22260854
65	0x3c64e222	0.01396993
66	0xbdc8ce5c	-0.09804985
67	0x3eb4f8e7	0.35346147
68	0x3c0ec58d	0.008714092
69	0x3e167635	0.1469353
70	0x3df03800	0.11729431
71	0x3dcb2b04	0.09920314
72	0x3e6bf919	0.23044242
73	0xbf058f35	-0.5217164
74	0x3e2abaf4	0.1667288
75	0x3ea98e26	0.33116263
76	0xbc4e6638	-0.012597613
77	0x3e9bd15c	0.30433166
78	0xbd84a9df	-0.06477713
79	0xbd172575	-0.036900956
80	0x3dbfc469	0.09363634
81	0x3ea74595	0.32670274
82	0x3ea034f1	0.3129039
83	0xbe855bff	-0.2604675
84	0x3eea3011	0.45739797
85	0xbdb6aaad	-0.089192726
86	0x3eb0ab09	0.3450549
87	0xbd994d16	-0.07485406
88	0x3c892e27	0.01674564
89	0xbda9785a	-0.08274908
90	0xbc8e05e7	-0.017336799
91	0xbd4aef28	-0.049544483
92	0x3e3672a3	0.17817168
93	0xbea63f10	-0.32469988
94	0x3e05a67f	0.13051794
95	0xbd1b2b63	-0.037883174
96	0xbf16ade8	-0.5885911
97	0x3c8646ad	0.016391123
98	0x3dc38fc1	0.09548903
99	0xbe280cfd	-0.16411205
100	0x3e909468	0.28238225
101	0x3e14d6bf	0.14535044
102	0x3ee1e93e	0.44123262
103	0x3cf6e112	0.030136619
104	0x3e5dfd2b	0.21678607
105	0xbd89fa14	-0.06737152
106	0x3dde9ebf	0.10870122
107	0x3d9f2cde	0.077722296
108	0xbe6ef603	-0.23336034
109	0xbd2eb593	-0.04265363
110	0x3e292898	0.16519392
111	0xbef839ca	-0.4848159
112	0xbea2c601	-0.3179169
113	0xbe2d127a	-0.1690158
114	0x3e1274b4	0.14302331
115	0x3e3c13d3	0.18366937
116	0x3cc771ac	0.024346195
117	0x3d345e5a	0.044035293
118	0x3b673416	0.0035278848
119	0xbccb0449	-0.024782317
120	0x39fa5268	0.00047745113
121	0xbe7a30c7	-0.2443267
122	0x3d808217	0.06274813
123	0xbd8c5e46	-0.06853919
124	0xbd6cc67e	-0.057806484
125	0x3e98c046	0.29834193
126	0x3d859bd7	0.06523865
127	0x3b5780da	0.0032883198

5.weight f4 [128, 128]
0	0x3f22f74f	0.6365861
1	0x3e753526	0.23946056
2	0x3e2ecf03	0.17071156
3	0xbede1c93	-0.43381175
4	0x3e192bd8	0.14958131
5	0x3f0c2642	0.54745877
6	0x3f4f61e0	0.8100872
7	0xbe03c7a1	-0.12869121
8	0xbe6649fa	-0.22489157
9	0xbed14f21	-0.40880683
10	0x3e18ad76	0.1490992
11	0x3ec570d2	0.38562638
12	0xbedd2c6f	-0.43197963
13	0xbf0604e3	-0.52351207
14	0xbd85a202	-0.06525041
15	0x3f4bd01f	0.7961444
16	0xbcc54981	-0.024082901
17	0x3e251a7a	0.16123381
18	0x3e5d82aa	0.21631876
19	0xbf2f0184	-0.6836169
20	0x3ed0c054	0.40771735
21	0x3efc846d	0.49319783
22	0xbea545d2	-0.3227983
23	0x3e8ef578	0.27921653
24	0x3e71fa89	0.23630728
25	0xbe8d285f	-0.27569863
26	0x3f12a0b4	0.57276464
27	0x3e763abc	0.24045843
28	0x3d9e744b	0.07737025
29	0xbc1ef108	-0.009701021
30	0xbf2ec58d	-0.6827019
31	0x3c199475	0.009373774
32	0xbdc98912	-0.09840597
33	0xbf0ad4ed	-0.5423115
34	0x3e542590	0.20717454
35	0x3e3b4159	0.18286647
36	0x3f24b6e9	0.643416
37	0xbd89ca8f	-0.06728088
38	0x3ed98a14	0.42488158
39	0x3da0dd27	0.078546815
40	0xbe8fef37	-0.28112194
41	0x3d3d47d3	0.046211075
42	0x3e8c4d55	0.2740275
43	0xbea8d889	-0.32977703
44	0x3ef863eb	0.4851373
45	0xbf0cd450	-0.55011463
46	0xbe2487b9	-0.16067399
47	0x3ee0ae58	0.43883014
48	0xbf2f90f4	-0.68580556
49	0xbda169d1	-0.07881511
50	0xbd402a4f	-0.04691535
51	0xbe64acc1	-0.22331525
52	0x3dff1edd	0.124570586
53	0xbf067f30	-0.5253782
54	0x3e1914e5	0.14949377
55	0xbf16ceea	-0.58909476
56	0xbef5b689	-0.47990826
57	0xbe99f0b7	-0.30066463
58	0x3d8b2433	0.06794014
59	0x3efbf5da	0.49211007
60	0x3e46cb9e	0.19413611
61	0x3d5e60da	0.054291584
62	0x3e935778	0.2877767
63	0x3ee58587	0.44828436
64	0xbf1bd2f4	-0.60868764
65	0x3d983adb	0.07433101
66	0x3e7089a8	0.23490012
67	0x3ee0ff01	0.43944553
68	0x3ed3f397	0.41396782
69	0x3dd15d56	0.102228805
70	0x3c9b1e94	0.01893548
71	0x3d812083	0.06305029
72	0xbe903aca	-0.28169852
73	0x3be80166	0.007080245
74	0xbe8bfca2	-0.2734118
75	0xbefd0d8a	-0.49424392
76	0x3e6a6e5a	0.22893658
77	0x3eddff54	0.43358862
78	0xbea06043	-0.31323442
79	0xbdf6f88d	-0.12059126
80	0xbf39b6f5	-0.72544795
81	0x3f4e47eb	0.8057849
82	0x3dc7df52	0.09759392
83	0xbf06b09d	-0.5261324
84	0x3f2d78ff	0.6776275
85	0xbdc02e7b	-0.093838654
86	0x3ea7040d	0.32620278
87	0xbed7b98a	-0.42133743
88	0x3d563502	0.052296646
89	0x3d6fd0f8	0.058548898
90	0x3d5cdc9e	0.053921334
91	0x3e8b5135	0.27210394
92	0xbd80b48b	-0.06284436
93	0x3f072bda	0.5280129
94	0xbe635e82	-0.2220402
95	0x3e2ef22c	0.17084569
96	0xbecdc153	-0.40186557
97	0x3c008a89	0.007845529
98	0x3f329b34	0.6976807
99	0x3e2e9ae6	0.17051277
100	0x3dc2923b	0.095005475
101	0x3dd15da9	0.102229424
102	0x3f0fee76	0.5622324
103	0x3e3beff5	0.18353255
104	0xbed3dcce	-0.41379398
105	0xbf1004ca	-0.5625731
106	0xbe98b469	-0.29825142
107	0x3e583885	0.2111531
108	0x3f000ace	0.50016487
109	0x3f2bb7de	0.67077434
110	0x3e86634d	0.26247635
111	0xbe0ae01e	-0.13562056
112	0xbef94321	-0.48684028
113	0xbec6c08c	-0.38818777
114	0x3ebf9d0f	0.37424514
115	0xbc1581b0	-0.009125158
116	0x3e2555e2	0.16146043
117	0xbf014f98	-0.50512075
118	0xbe96f730	-0.29485464
119	0xbe9467e6	-0.28985518
120	0xbd514495	-0.051090796
121	0x3d0cbfbf	0.03436255
122	0x3d3641dc	0.044496402
123	0xbea6ea2d	-0.32600537
124	0x3e5c9c2a	0.21543947
125	0xbea4b1c3	-0.3216687
126	0xbf01bfce	-0.50683296
127	0xbdaa0bb3	-0.08303013
128	0xbf01494e	-0.5050248
129	0x3e4e912d	0.20172568
130	0xbf0ea4f8	-0.5572047
131	0x3e664602	0.22487643
132	0x3ea1985d	0.31561556
133	0x3f064b95	0.5245908
134	0xbede15f0	-0.43376112
135	0x3e8c5b73	0.2741352
136	0xbdd84f3d	-0.105619885
137	0x3e01db0e	0.12681219
138	0x3ef3aacd	0.47591248
139	0xbc9cac42	-0.019125108
140	0xbdf96bb9	-0.121787496
141	0x3dbaaafe	0.091146454
142	0x3e7c19c8	0.2461921
143	0xbede16d5	-0.43376794
144	0xbde551b7	-0.111972265
145	0xbdd0ee10	-0.10201657
146	0x3e89db02	0.26924902
147	0x3dd9190a	0.10600479
148	0x3f38eb4e	0.72234046
149	0x3ecf82af	0.4052939
150	0x3f0d7c86	0.5526813
151	0xbb922668	-0.004460145
152	0x3ec9fa56	0.39448804
153	0x3f10b517	0.5652632
154	0x3ef69646	0.48161525
155	0x3edd0f66	0.4317581
156	0xbdad5eb0	-0.08465326
157	0x3dab6179	0.08368201
158	0xbeec3a7f	-0.4613838
159	0x3d8d50eb	0.069001995
160	0x3f335657	0.7005362
161	0xbf2c4977	-0.672996
162	0x3d5e5c06	0.05428698
163	0xbed9c6c3	-0.42534456
164	0x3efa030d	0.48830453
165	0xbb8b8493	-0.0042577474
166	0x3f1240d5	0.57130176
167	0x3e58776a	0.21139303
168	0x3e7e4315	0.24830277
169	0x3f08b045	0.53393966
170	0x3ef73b4d	0.4828743
171	0x3e0858b9	0.13315095
172	0xbe9d9645	-0.3077871
173	0xbd497f4a	-0.049193658
174	0x3eeef246	0.46669215
175	0x3eaac7bb	0.33355507
176	0x3d5fc81e	0.054634206
177	0xbeaa4719	-0.33257368
178	0x3e9c875e	0.30572027
179	0x3e9d8956	0.30768842
180	0xbe1cabf3	-0.15299968
181	0x3ce66ebc	0.028128974
182	0x3ec6da6e	0.38838524
183	0x3dad15c4	0.08451417
184	0xbed80539	-0.42191485
185	0x3d786d60	0.060651183
186	0x3d65217c	0.055940136
187	0x3e7526df	0.2394061
188	0x3f2b712a	0.6696955
189	0x3e489d78	0.1959132
190	0xbe104e8f	-0.14092468
191	0xbb46233b	-0.0030233401
192	0xbc02abb2	-0.007975506
193	0x3df3af23	0.11898639
194	0x3c834485	0.016023884
195	0x3e6d9e37	0.23204885
196	0x3d9fe004	0.078063995
197	0x3f458ce4	0.7716811
198	0x3bb05bc3	0.0053820326
199	0x3d1ee18d	0.03878932
200	0x3d514edd	0.0511006
201	0x3e6cb602	0.23116305
202	0x3d19fc12	0.03759391
203	0xbe338218	-0.17530096
204	0xbe514e03	-0.20439915
205	0x3ea1b0cf	0.31580207
206	0x3d74180f	0.059593257
207	0xbec3bd80	-0.38230515
208	0x3ee46106	0.44605273
209	0xbe79c4b9	-0.2439145
210	0xbe3dad22	-0.18523076
211	0x3cbe774f	0.02325025
212	0x3db9f9e5	0.09080867
213	0x3eadbdce	0.33933872
214	0x3ec85a23	0.3913127
215	0x3e111116	0.14166674
216	0xbef4bd81	-0.4780083
217	0xbe7aacb5	-0.24479945
218	0xbe406bbf	-0.18791102
219	0x3d7d119b	0.061784368
220	0x3eb39fe5	0.35082927
221	0x3eb4c1ad	0.35304013
222	0xbf4e6d7c	-0.8063581
223	0xbf1ca825	-0.6119407
224	0x3ea3d42d	0.31997815
225	0x3da9fe70	0.08300483
226	0xbebcca15	-0.36872926
227	0x3d20f49f	0.03929579
228	0x3f0f3a5a	0.5594841
229	0x3e391097	0.18072735
230	0x3ed4826c	0.41505754
231	0xbb907ae6	-0.004409182
232	0x3e9c07ad	0.30474606
233	0xbd3c9d0f	-0.04604822
234	0x3e5bb574	0.21455938
235	0xbc40cd5f	-0.011767714
236	0x3dbe71c9	0.092990465
237	0x3e86eebf	0.26354024
238	0xbd7814ca	-0.0605667
239	0xbe92a4e2	-0.2864142
240	0x3e4e051b	0.20119135
241	0xbe853b4f	-0.2602181
242	0x3e2aebd8	0.1669153
243	0x3c75efea	0.015010813
244	0x3dbd08d6	0.09230201
245	0x3eba1b3a	0.36348897
246	0xbde21ca2	-0.110406175
247	0x3e49a1bc	0.19690603
248	0xbee39c91	-0.44455388
249	0xbe317463	-0.17329554
250	0xbe63f2cc	-0.22260588
251	0x3fb24ee4	1.3930326
252	0xbf051d79	-0.51998097
253	0xbe6a271d	-0.22866483
254	0x3f04dc3c	0.5189855
255	0x3e46a703	0.19399647

5.bias f4 [128]
0	0x3d0bf151	0.034165684
1	0x3d8d9853	0.06913819
2	0xbd6db9bc	-0.05803846
3	0x3dcd836b	0.100348316
4	0xbcd54076	-0.026031714
5	0x3de88e94	0.113553196
6	0x3c6034c9	0.01368446
7	0x3e188143	0.1489306
8	0xbde80935	-0.11329881
9	0xbd7eb08b	-0.062180083
10	0xbd982bff	-0.074302666
11	0x3dfb576f	0.12272536
12	0xbc27bd92	-0.010238068
13	0xbd8e5d8c	-0.069514364
14	0xbd3a2893	-0.04544885
15	0x3e14c0cc	0.14526671
16	0xbd93c02e	-0.0721439
17	0x3e3df918	0.18552053
18	0x3ea5ef36	0.32409066
19	0x3e080b35	0.13285525
20	0xbe050acd	-0.12992401
21	0x3e82dabb	0.25557503
22	0xbe26b5a9	-0.16280235
23	0x3e22bef3	0.15893154
24	0x3c8b0075	0.016967991
25	0x3c810143	0.015747672
26	0x3df14a0e	0.11781703
27	0xbe345a4e	-0.17612574
28	0x3c8ec589	0.017428176
29	0x3e2f37ce	0.17111132
30	0x3ddd43de	0.1080396
31	0x3e67ca5a	0.22635785
32	0x3e4f200b	0.20227067
33	0x3dd550f1	0.10415829
34	0x3e40f503	0.18843465
35	0x3e5aee37	0.21379934
36	0x3e91cab0	0.2847495
37	0x3dbf61c2	0.09344818
38	0x3de05ae8	0.10954839
39	0x3e1a7ac1	0.1508589
40	0x3d27693e	0.04087185
41	0x3dc16bf8	0.094444215
42	0x3e2c35b5	0.16817363
43	0xbe0f1adb	-0.13975088
44	0x3dab7889	0.083726
45	0x3e8028ac	0.2503103
46	0x3c9ace01	0.018897058
47	0x3dc5b78f	0.09654152
48	0x3e5959bf	0.21225642
49	0x3e788341	0.2426882
50	0x3ea5ab99	0.3235748
51	0x3d8a2aa3	0.067464136
52	0xbe4ce603	-0.20009618
53	0x3e3d6d60	0.18498755
54	0x3b8dd429	0.00432827
55	0xbded69a9	-0.11592419
56	0xbdef2cac	-0.11678442
57	0x3e630890	0.22171235
58	0x3c9af41c	0.018915229
59	0x3ce7f8d6	0.028316896
60	0xbcacc132	-0.021088216
61	0xbbc010c9	-0.005861376
62	0x3e4637ce	0.19357225
63	0x3da58ee7	0.08083897
64	0x3dd2763d	0.102764584
65	0x3dd22f80	0.10262966
66	0x3e273927	0.16330396
67	0x3e065f70	0.13122344
68	0x3e0806a0	0.13283777
69	0xbdb1c439	-0.086800046
70	0x3a033b82	0.0005006121
71	0x3e55267e	0.20815465
72	0x3e3a00cb	0.18164365
73	0xbdfe3969	-0.12413294
74	0x3e013764	0.12618786
75	0x3d6d8490	0.05798775
76	0x3e03bbdd	0.12864633
77	0x3dbfa103	0.093568824
78	0xbdbc15bf	-0.09183835
79	0x3de0906a	0.10965045
80	0xbe83d6e1	-0.25749877
81	0x3c393a24	0.011305366
82	0xbe36c977	-0.1785029
83	0x3e246fa6	0.16058215
84	0x3d15199c	0.036401376
85	0xbda48b41	-0.08034373
86	0xbdcafc45	-0.09911398
87	0x3e66b270	0.22529006
88	0x3e8f258f	0.27958342
89	0x3ea899a4	0.32929718
90	0x3d0589b7	0.03260204
91	0x3e831da7	0.2560856
92	0x3eb8b55c	0.36075866
93	0xbcc2140d	-0.023691202
94	0x3d4a68ce	0.049416356
95	0xbdce5e2b	-0.10076555
96	0x3d82d5a2	0.063884035
97	0x3c83c7b8	0.016086444
98	0x3e26a73b	0.16274731
99	0x3e723b25	0.23655374
100	0x3d3cc037	0.046081748
101	0x3df34b47	0.118795924
102	0x3ee57b68	0.44820714
103	0x3e9b1dfe	0.3029632
104	0x3d95c35b	0.07312652
105	0xbdd99415	-0.106239475
106	0xbd6484e0	-0.055790782
107	0xbc6ace5b	-0.014331426
108	0xbd91ae86	-0.07113366
109	0x3e37382a	0.17892519
110	0x3ecd5804	0.40106213
111	0x3d5f525a	0.054521896
112	0xbb0d7f6b	-0.002159084
113	0x3e46021f	0.19336747
114	0x3ecef6df	0.40422723
115	0x3db54066	0.08850174
116	0x3d9cbccc	0.07653198
117	0x3cbbca70	0.022923678
118	0x3db9a02a	0.09063752
119	0x3ddfb465	0.109230794
120	0x3e5a018e	0.21289656
121	0x3d2470db	0.04014669
122	0x3c1ac217	0.009445689
123	0x3e346a2e	0.1761863
124	0x3ddf1cd2	0.10894169
125	0x3e48abb7	0.19596754
126	0xbd4969a8	-0.049173027
127	0x3e9def91	0.30846837

7.weight f4 [16, 128]
0	0xbdd8c988	-0.10585314
1	0x3ec29a26	0.3800823
2	0x3f0e53f9	0.5559688
3	0x3dcaa538	0.09894794
4	0x3ea31202	0.31849676
5	0x3df7fda1	0.12108923
6	0x3f14ee76	0.5817636
7	0x3f381e26	0.71921
8	0x3ee32471	0.4436374
9	0x3dcb19a0	0.09916997
10	0x3f7c6706	0.985947
11	0x3fa904fd	1.3204647
12	0xbda9ddba	-0.08294244
13	0xbe5c95bf	-0.21541499
14	0xbf3ea1b2	-0.7446548
15	0xbe84d795	-0.25945726
16	0x3fd056c0	1.6276474
17	0xbe47fb61	-0.19529487
18	0x3ed1d4b9	0.40982607
19	0x3e8200ea	0.25391322
20	0xbbb7876c	-0.0056008603
21	0xbe1f4929	-0.15555252
22	0x3e8fa420	0.28054905
23	0x3d635648	0.055502206
24	0x3e9d7dd7	0.3076007
25	0xbf0fa718	-0.5611434
26	0xbe2278f0	-0.15866446
27	0xbea41b9e	-0.3205232
28	0x3f31db1d	0.69474965
29	0xbe8ceda1	-0.27525046
30	0x3f529323	0.8225576
31	0xbef94b2f	-0.48690173
32	0xbd98a189	-0.074526854
33	0x3f5fabf4	0.87371755
34	0xbe5c7972	-0.21530703
35	0x3f156885	0.5836261
36	0x3f9ca75c	1.2238574
37	0x3f540dfa	0.82833827
38	0x3f03149f	0.5120334
39	0xbe92e52c	-0.2869047
40	0x3e49ff66	0.19726333
41	0x3f213fc5	0.6298793
42	0x3f49843d	0.78717405
43	0x3d36ae1d	0.04459964
44	0x3e03f279	0.12885465
45	0xbcd70a97	-0.026250167
46	0x3f30a035	0.68994457
47	0xbde4b1c3	-0.11166718
48	0xbe56ee79	-0.20989408
49	0xbdcc2853	-0.09968629
50	0xbe3a51f3	-0.18195324
51	0x3e044979	0.12918653
52	0x3fa9ef9a	1.3276246
53	0xbec3f2be	-0.38271135
54	0xbe0a18f3	-0.1348608
55	0xbe54b3c6	-0.20771703
56	0x3e4e31cd	0.20136185
57	0x3dc31380	0.09525204
58	0x3f01cb56	0.5070089
59	0x3e9fc4ae	0.31204742
60	0x3f1ccd19	0.61250454
61	0x3fd704a0	1.6798286
62	0xbec9ee66	-0.39439696
63	0x3f81da72	1.0144789
64	0x3ee79c05	0.4523622
65	0xbef00528	-0.46878934
66	0x3dcedca6	0.10100679
67	0xbc990e1a	-0.018683482
68	0xbe5fcc0c	-0.21855181
69	0x3dec0706	0.11524777
70	0xbeef08bb	-0.46686348
71	0x3e0614fc	0.13093942
72	0x3e4c857a	0.19972792
73	0x3f45dbba	0.772884
74	0x3eaaf720	0.33391666
75	0x3f509237	0.81473106
76	0x3e33dd5d	0.17564912
77	0xbe5f4b80	-0.21806145
78	0x3f3b2f45	0.73119
79	0xbdd29943	-0.102831386
80	0xbeaa505a	-0.33264428
81	0xbe46f849	-0.19430651
82	0x3f4a1f27	0.78953785
83	0x3f99e3fb	1.2022699
84	0x3f11ede5	0.57003623
85	0x3caff4b5	0.02147899
86	0x3eadd6cc	0.3395294
87	0x3f210d75	0.6291116
88	0xbc826ef6	-0.01592205
89	0xbe9d5e8e	-0.30736202
90	0xbbc941c2	-0.006141872
91	0x3e329c52	0.17442444
92	0x3e9d0cc8	0.30673814
93	0x3fa4c829	1.2873584
94	0x3d22a199	0.039704893
95	0x3f2b6ed4	0.66965985
96	0x3f03e1bd	0.51516324
97	0x3eb511f9	0.35365275
98	0x3e4efddf	0.20214032
99	0x3f7e9e22	0.9946004
100	0xbdae938a	-0.085242346
101	0x3e9f3fea	0.3110345
102	0x3f05ed53	0.52315253
103	0x3f087bab	0.533137
104	0x3e9aff73	0.30273017
105	0x3f2f7545	0.68538314
106	0x3d7569c0	0.059915304
107	0x3ca5058b	0.020144245
108	0x3f9a7bad	1.2068993
109	0x3e0021dd	0.12512918
110	0xbeb4220d	-0.3518223
111	0xbe5c86d5	-0.2153581
112	0xbe8325f1	-0.25614884
113	0xbf0e2b30	-0.5553465
114	0x3e6a20e0	0.22864103
115	0xbf6abeb4	-0.9169724
116	0xbe046ddb	-0.12932532
117	0x3e1d7c25	0.15379389
118	0x3fb59b89	1.418809
119	0x3f338b1a	0.7013413
120	0x3eae8d6f	0.3409228
121	0x3f61dfc2	0.8823205
122	0x3d71da08	0.05904582
123	0xbe9ee185	-0.31031433
124	0xbec3057c	-0.38090122
125	0xbbbc6bf6	-0.0057501746
126	0x3f80e2ab	1.0069174
127	0xbe7147bd	-0.23562522
128	0xbf48cf78	-0.7844157
129	0x3e12748b	0.1430227
130	0x3efbbf98	0.49169612
131	0xbe126552	-0.14296463
132	0xbe433641	-0.19063665
133	0x3f807c9c	1.0038028
134	0x3f557966	0.83388364
135	0xbe54ef70	-0.20794463
136	0x3ee1f9aa	0.4413579
137	0x3f13171a	0.57457125
138	0xbee4df07	-0.44701406
139	0x3e338897	0.17532574
140	0x3f220a87	0.63297313
141	0x3f55b33c	0.83476615
142	0x3f5ffd78	0.8749614
143	0xbe922fad	-0.28552
144	0x3d920dbd	0.071315266
145	0x3e6625f5	0.22475417
146	0x3f8d7ab7	1.1053075
147	0xbf0c03c9	-0.54693276
148	0x3dc2faa3	0.095204614
149	0x3d19de59	0.037565563
150	0xbd17634f	-0.036959942
151	0x3efed5b0	0.49772406
152	0x3e0bd958	0.13657129
153	0x3e8de3f6	0.27712983
154	0x3f02660c	0.5093696
155	0x3e8c291f	0.27375123
156	0x3d133dc2	0.03594757
157	0xbd599f38	-0.05313036
158	0x3e9ede25	0.31028858
159	0x3edf4193	0.43604717
160	0xbf29d12e	-0.6633481
161	0xbe802fbe	-0.25036424
162	0xbeff0ce6	-0.49814528
163	0xbe20dbd9	-0.15708865
164	0xbe0a39b6	-0.13498577
165	0x3f3d4d99	0.7394653
166	0xbe73417b	-0.23755448
167	0x3d6643fa	0.05621717
168	0xbf510f30	-0.816638
169	0xbeb120e2	-0.345954
170	0x3dc9cb3e	0.098532185
171	0xbf1a40a5	-0.6025489
172	0x3f05dfdd	0.52294713
173	0x3f97cdc6	1.1859672
174	0x3d917277	0.071019106
175	0xbe9696ea	-0.29412013
176	0x3e6c4f55	0.23077138
177	0xbe3db158	-0.18524683
178	0x3f582418	0.84430075
179	0xbe9c1fc5	-0.30492988
180	0x3f72696c	0.9469211
181	0x3ec71b50	0.38888025
182	0xbf6ed90a	-0.93299925
183	0x3eeba791	0.4602628
184	0x3ecce047	0.4001486
185	0x3ee0f4b0	0.43936682
186	0xbed262d6	-0.4109103
187	0x3e0a07c5	0.13479526
188	0x3f8331b9	1.0249549
189	0x3e81241d	0.25222865
190	0x3dd1ec4f	0.102501504
191	0x3f9ccdb7	1.2250279
192	0x3fcc4aae	1.596029
193	0x3f3fe2e6	0.74955595
194	0xbec9b10e	-0.39392895
195	0x3f00cd3b	0.50313157
196	0x3f5d8f6d	0.86546975
197	0x3f01e193	0.50734824
198	0x3dc2500a	0.094879225
199	0x3cdbe412	0.02684215
200	0xbed657f3	-0.41863975
201	0x3e99029a	0.29884797
202	0x3f32ee59	0.6989494
203	0x3e1c1f4e	0.15246317
204	0x3f2146ff	0.62998956
205	0x3d44af78	0.048018903
206	0x3f19c1f5	0.6006158
207	0xbf531c95	-0.8246549
208	0xbf5bac86	-0.85810125
209	0xbf187185	-0.5954822
210	0x3ee9a092	0.45630318
211	0xbb150f65	-0.0022744772
212	0x3e425194	0.18976432
213	0x3ec8f8c2	0.39252287
214	0x3eb5fda8	0.35545087
215	0xbdb7d702	-0.08976556
216	0x3f6c3c25	0.92279273
217	0xbe1d75a9	-0.15376915
218	0x3eb96733	0.36211547
219	0x3f11d9a3	0.5697271
220	0x3f1dc220	0.61624336
221	0x3f038b08	0.5138402
222	0xbe867bf5	-0.26266447
223	0x3cc07950	0.023495346
224	0x3ef48a9b	0.47761998
225	0x3e6742fe	0.22584149
226	0xbd28aa7e	-0.04117822
227	0xbb82cfda	-0.003992063
228	0x3f4af7db	0.7928445
229	0x3e9572ab	0.29189047
230	0x3e1c82b8	0.1528424
231	0xbe625d5b	-0.22105925
232	0x3f16f249	0.5896345
233	0x3ed1a4ba	0.4094599
234	0x3f982462	1.1886103
235	0x3f9ac22c	1.2090507
236	0x3f2d749c	0.67756057
237	0xbd13bcf9	-0.03606889
238	0xbec00b3b	-0.37508568
239	0xbf308e54	-0.68967175
240	0x3f3b41ae	0.73147094
241	0x3f58b7f1	0.8465567
242	0xbc0d06b0	-0.008607551
243	0xbf4f5073	-0.8098213
244	0x3f80a586	1.0050514
245	0x3d51b4ef	0.051197942
246	0x3f8435fd	1.0328976
247	0x3f249806	0.6429447
248	0xbe3dcfff	-0.18536375
249	0xbe014b05	-0.12626274
250	0xbe02cc89	-0.12773336
251	0x3f8e9de9	1.114194
252	0x3f10f9c7	0.5663113
253	0x3fd147fb	1.6350092
254	0x3ed57fd2	0.41699082
255	0x39a57ac9	0.00031562735

7.bias f4 [16]
0	0x3d4fe2f4	0.05075355
1	0x3cb95bd6	0.022626799
2	0x3e46fa7a	0.19431487
3	0x3eb96c89	0.36215618
4	0x3e1301dd	0.1435618
5	0xbc200615	-0.009767075
6	0x3e422449	0.18959154
7	0x3d3a08e8	0.04541865
8	0x3e9dc2a1	0.30812553
9	0x3e9849fe	0.29743952
10	0x3e6a3194	0.22870475
11	0x3e930b1d	0.28719416
12	0x38d7eded	0.00010296316
13	0x3ca8de15	0.02061371
14	0xbd8c73f8	-0.06858057
15	0x3e2a21b2	0.16614416
